data.pth (torch, 4991 bytes, 6 tensors)

l1.weight f4 [8, 54]
00000000: 985d cb3e 9e82 f63e 92a5 adbe d2c7 ca3e
00000010: 6f09 35bd b586 443f 63c5 6bbe d31c a3be
00000020: ee12 ccbe 702e b4be 73c0 a43e cc69 c03e
00000030: 6728 7abe aebf 203d 14ec 9f3e 298f 9b3e
00000040: b344 f33e 23e2 343f 3213 9abe ba4d 053f
00000050: f1a0 713e e3a4 a53e ecd6 d23e 18c6 c33e
00000060: a80b 45bb 6eed bd3e 639d 9dbe 4ad7 713e
00000070: 9069 b9bd 8909 853e 3c36 d23e 63d1 c13d
00000080: 38f8 833e de39 9cbe 5279 9b3e 0fe4 c73e
00000090: dcd8 3fbe cbba 05bf c30b 85be aea3 bfbd
000000a0: 25fb db3e 614d a0be 5d4b 793e 7945 3e3e
000000b0: 9ea4 85bd 401f 483e ffb3 3a3f a1fe a83e
000000c0: e030 213e e45f d8be 7ae4 b13e acda 01be
000000d0: fba4 88be ffe6 af3d 6c68 903e 35cf 773d
000000e0: 8b60 2ebd 72a6 a1bc 1f22 03bf c1c8 113d
000000f0: 9864 55be bbbd 88be e26b a43d 3259 afbe
00000100: d6a2 15be aa66 1a3f fd6a 9d3d a5ee 493f
00000110: 7697 df3c 57ce e53e 702d 61be 039d 0c3e
00000120: 841c 81bd bf5c bbbe 448f a23e 9c59 bbbe
00000130: 295d bbbe fe17 ff3e 79a6 e23e 572a f5bd
00000140: 1225 61bc ee2f 68be c0f8 923d 0cd6 6a3d
00000150: 8411 c9bc 6f63 1d3f 39d9 7c3e 7e00 8abd
00000160: 20ae 22be 868b ab3e a89e 9f3d 84cf 9fbc
00000170: 7189 fcbd 689e 6ebe d8ac 24bd 02fe 00be
00000180: 47d1 0e3f b723 46be ac91 203f fabe 28bd
00000190: 5cf2 2e3f eff7 e33e 4d27 68be 5528 e83c
000001a0: e059 e03e 568a d0bd 46c8 79be ee03 b4be
000001b0: 825c cb3c ebca 023f 1ea4 c83e e0d7 9cbd
000001c0: 52cb 01bc 206f 77be c5bd 873e 4378 843e
000001d0: b7b8 0a3f 25ea c53e 2b7b 6fbe 50a6 073f
000001e0: ed78 433f c109 583f c609 223f c12e 683e
000001f0: 130f 01bc cc8d 77be c02b 703e 50ec 77be
00000200: 9431 9e3c 9e8c 77be 2c7b 77be bc8f 90be
00000210: 2f23 983e 7e9c 33be 7231 c53e 2f7f 3c3f
00000220: 1d1e 9c3e 6e9b 093f b21e 79be c18d 503f
00000230: 858e 2ebd fbd2 3e3e c70a 473f b126 c03e
00000240: 39c6 bb3e 278c eb3e 2f88 973e 7a8f c43e
00000250: 1865 50be 8cab ce3e ad49 083f a93b 013f
00000260: 9900 0f3f 9ec9 433f 6819 7bbc 95c1 593e
00000270: 4475 9a3d 6a03 fb3e 7312 563e 41f0 b43e
00000280: 653a 3d3e b379 893e beb3 e73d 4df9 143e
00000290: fda9 da3d 5ac2 cabe 6859 c83d 0d0f 383f
000002a0: e100 2c3e b1d7 a0be 3d8f d13e f35b 60be
000002b0: c6e2 93be 844b 013f a0a7 1c3f d557 e23e
000002c0: 7cef a13d 83c2 ac3e 43d6 96be 8db2 1e3f
000002d0: 9897 cc3e 09e8 15bf 79d8 743d 9ae0 16bf
000002e0: 47b5 ddbe 2c66 9cbd 02f4 dc3e 85d8 b7be
000002f0: 91c1 383f dd16 463d daf7 c33e 435b 82be
00000300: 44a0 133f afd1 033f 40a2 533d ba8a 37bd
00000310: 24cc 9c3c 48dc 7f3e 1f79 133f d7c8 5b3e
00000320: dd23 173e dd83 5d3e 640c 203f cfd2 163f
00000330: a1f6 d13e 8cd0 523d ca76 ad3e 9a82 633e
00000340: 7988 8b3e 64ed b43d 2a37 6f3e a19b 2b3f
00000350: 8520 f93e a1ee fa3e b4c9 933e 3ddb 9e3e
00000360: 7ce5 573e 9599 123f 5404 5dbe 726c 833e
00000370: 829b 043e 5bad 0cbf 06dc 75bd d6c9 21be
00000380: 1709 b8be 761c 5ebe ffaa 9a3e 6bbd 4e3e
00000390: aeda a0bd 36da adbc dc00 873e 47b3 9b3e
000003a0: 0f52 a03e 97a8 0cbf ab93 17be 7210 aa3e
000003b0: cce7 b63e e9ea f43e 8fc0 e43e a879 0c3f
000003c0: ca81 073e 9288 b13e 05ca 6dbe 6e65 d13e
000003d0: c37d 49be 6b70 183f e4f8 88be 3792 203d
000003e0: f319 783e 3d92 bbbe c5be df3e 5870 7b3e
000003f0: 731b 7dbc e891 dcbe 9336 65be 56f8 96be
0.39719844 0.48146528 -0.33915383 0.39605576 -0.04419845 0.76768047 -0.23024516 -0.3185793
-0.39858192 -0.3519168 0.32178077 0.37580717 -0.24429475 0.0392453 0.312348 0.3038266
0.4751335 0.7065756 -0.3009277 0.52071726 0.2359655 0.3235236 0.41179597 0.3823707
-0.0030066762 0.37095207 -0.3078414 0.23617283 -0.090533376 0.25983837 0.41057003 0.094637655
0.25775313 -0.305129 0.30365998 0.39041182 -0.18735069 -0.5223815 -0.25985536 -0.09357391
0.42965046 -0.31309035 0.24345155 0.18581189 -0.06525539 0.19543171 0.729309 0.33006766
0.157413 -0.4226066 0.34744626 -0.12681073 -0.2668837 0.08588981 0.28204668 0.060500342
-0.04257254 -0.019732688 -0.5122394 0.035591844 -0.20839155 -0.26707253 0.080283895 -0.34247738
-0.14612898 0.603129 0.07686422 0.7887977 0.027293902 0.44883987 -0.2198999 0.1373177
-0.06304267 -0.36594197 0.31749928 -0.36591804 -0.36594513 0.49822992 0.44267634 -0.11970966
-0.013741748 -0.22674534 0.071763515 0.057333037 -0.024544485 0.6147985 0.24692239 -0.06738375
-0.15886736 0.33504885 0.07793933 -0.01950813 -0.12330902 -0.23302615 -0.0402039 -0.12596896
0.5578808 -0.19349562 0.6272228 -0.041197754 0.6833856 0.44525096 -0.22671242 0.028339544
0.4381857 -0.101826355 -0.24392805 -0.35159248 0.024824385 0.5109088 0.3918771 -0.076583624
-0.0079220105 -0.24163485 0.2651197 0.25873002 0.541881 0.386552 -0.23386829 0.5298815
0.76356393 0.84389883 0.63296163 0.22674085 -0.007877129 -0.24175185 0.2345419 -0.2421124
0.01931075 -0.24174735 -0.2416808 -0.2823466 0.29714343 -0.17540166 0.38514286 0.73631567
0.30491725 0.5375279 -0.24328116 0.814663 -0.042616386 0.1863517 0.7775082 0.3752952
0.3667467 0.46005365 0.29596087 0.38390714 -0.20351064 0.40365255 0.5323742 0.5048166
0.55860287 0.7647952 -0.015325882 0.21265252 0.07541898 0.49026042 0.20905475 0.3533955
0.18479307 0.26850662 0.1131358 0.14548226 0.10676954 -0.39601403 0.09782678 0.71897966
0.1679721 -0.3141456 0.40929595 -0.21910076 -0.28883952 0.5050585 0.61193275 0.44207636
0.07907006 0.3374215 -0.29460344 0.61991197 0.39959407 -0.5855718 0.059776757 -0.58936465
-0.43302366 -0.07636675 0.43154913 -0.3590738 0.7217036 0.048361648 0.38275033 -0.25460252
0.5766642 0.51491827 0.051668406 -0.044810034 0.01914031 0.24986374 0.5760669 0.21463333
0.14759775 0.21632333 0.62518907 0.5891542 0.41008475 0.051468417 0.3387969 0.2221779
0.27252558 0.08834341 0.23360887 0.67034346 0.48657623 0.49010184 0.28864825 0.3102664
0.21083635 0.572656 -0.21583682 0.25668675 0.12949947 -0.5495202 -0.060024284 -0.1579965
-0.35944435 -0.21690544 0.30208585 0.20189445 -0.0785421 -0.021222215 0.26367843 0.30410215
0.31312606 -0.5494475 -0.14802425 0.33215672 0.35723722 0.47835472 0.4467816 0.5487313
0.13233104 0.34674507 -0.23221596 0.40897697 -0.1967688 0.59546536 -0.26752388 0.03920194
0.24228649 -0.36635008 0.43700233 0.24554574 -0.015448439 -0.43080068 -0.223841 -0.2948634

l1.bias f4 [8]
00000000: bee0 643f 745f bb3e 868c 773e 2ae5 163f
00000010: 0cb0 0c3f efda 5e3f 466d da3e d1fa 233f
0.8940543 0.36596262 0.24174699 0.58943427 0.54956126 0.87052816 0.42661494 0.6405459

l2.weight f4 [8, 8]
00000000: 3253 953e 6bfe 383f 2a54 523f 8b27 ac3e
00000010: 64ac 933f 787a 1abf 664d 5abd 6202 373d
00000020: 7c84 9ebe 3226 6ebe 3a73 18be e65c 303e
00000030: 3279 78be a28f a4be 356b 843d da24 0abe
00000040: d095 933f 9530 96be c8f5 8abf 8201 d5be
00000050: 3437 733f 20f7 2d3f d18a c0be cb76 2e3f
00000060: 7889 2e3f 3345 243f 29d2 f03d ae81 9a3f
00000070: 30a8 96bf 774b 303f af9a aabe 0c59 88bf
00000080: cc1b 283f 0c24 39bf 3df7 233f 91a9 e53e
00000090: 0fca bc3e b0f1 23bf 8617 983e 5571 62bf
000000a0: 6293 663f 516d 573f be59 94be d328 303f
000000b0: 8865 d7bc f03e 79bf e381 42bf d227 2e3f
000000c0: 3684 4e3f 5643 4cbf 4ead 20be 803a 13bf
000000d0: a884 eb3e a0db 893f 3bc8 4f3f ff59 6b3f
000000e0: 2a84 89bf 8ab0 50bf f4a1 7d3f b912 523f
000000f0: c658 99bf 5102 903e 1392 673f a63d 5e3f
0.29165035 0.7226321 0.82159674 0.3362392 1.1536984 -0.6034312 -0.05329647 0.044680007
-0.30960453 -0.23256758 -0.14887705 0.17222938 -0.24264982 -0.32140833 0.064657606 -0.1349062
1.1530094 -0.2933394 -1.0856256 -0.41602713 0.9500611 0.6795521 -0.3760591 0.68150014
0.6817851 0.6416809 0.11758835 1.2070825 -1.1770077 0.6886515 -0.3332114 -1.0652175
0.65667415 -0.7232063 0.6404913 0.4485593 0.36872908 -0.6404066 0.29705447 -0.8845418
0.9006864 0.8415118 -0.28974718 0.6881229 -0.026293531 -0.9736166 -0.7597944 0.6802951
0.8067049 -0.79790246 -0.1569111 -0.5751114 0.45999646 1.0770149 0.811649 0.919342
-1.0743458 -0.8151938 0.99075246 0.8205982 -1.1980217 0.28126767 0.90457267 0.8681282

l2.bias f4 [8]
00000000: a15f a5be b241 aebe c0bf 403f 328d 0c3f
00000010: 1729 fa3e d464 823e 362a a23e 10c9 fe3e
-0.32299522 -0.34034497 0.7529259 0.54902947 0.48859474 0.2546755 0.3167283 0.49762774

l3.weight f4 [7, 8]
00000000: 1bd9 493f b577 99bd c5b8 aebe c4a0 093f
00000010: 0b6f 08bf 9d3b 7cbe 407a b4bf 499d 84bf
00000020: 3027 4b3f d6b4 aebd d7e5 b0be 7c7f acbf
00000030: d0d1 0b3f dc35 87bf 1e47 a4bd 4e8d 95be
00000040: 104c c1bf f8f7 03bd 1694 c03e c86d 2a3f
00000050: bfb8 b83c 93ec 8e3e f855 e8bd 67bf 43bf
00000060: b327 45bf 4c56 dcbc 3e0d 4b3f f37b 9fbf
00000070: 5d58 26bf c43a 86bf 7d38 7b3f 7f38 31bf
00000080: 8170 b8bd 37d4 56be d1c0 2fbf 4fe3 f93d
00000090: 09d0 d53e ae48 5fbf 7475 9ebf 55e5 b13e
000000a0: 456c 01bf c4bc 27be dda3 2fbf fb2d 8dbf
000000b0: 92c0 66bf d83d f4be 4516 e33e 7b2b 193f
000000c0: d95a df3e a040 1d3e b57d ec3e fdab 9ebf
000000d0: 6e5e cabe f940 863f d6dc 91be ac59 4bbf
0.788469 -0.074935354 -0.34125343 0.53760934 -0.5329444 -0.24632116 -1.4099808 -1.03605
0.7935667 -0.085305855 -0.34550354 -1.3476405 0.54617023 -1.0563312 -0.08021377 -0.2920937
-1.5101337 -0.032218903 0.3761298 0.6657376 0.022549031 0.27914867 -0.11344522 -0.7646393
-0.770137 -0.026896618 0.7931708 -1.2459701 -0.6497858 -1.0486684 0.9813307 -0.6922683
-0.090058334 -0.20979391 -0.6865359 0.12201559 0.4176028 -0.87220275 -1.2379594 0.3474528
-0.5055583 -0.16380602 -0.6860941 -1.1029657 -0.9013759 -0.47703433 0.44352928 0.5983197
0.43624 0.15356684 0.46189657 -1.2396237 -0.3952517 1.0488578 -0.28488797 -0.79433703

l3.bias f4 [7]
00000000: 10a6 53be ae72 11be 882e afbc a861 1ebe
00000010: 9b1f 563c a0ff 673e 83e9 81be
-0.20668817 -0.14203903 -0.021384493 -0.1546694 0.013069059 0.22656107 -0.25373468
